dataRBC/RBC_r28L_T100R100_pca5_model_dict.pth (torch, 212947 bytes, 3 tensors)

encoder.bias f4 [5]
00000000: d560 a83f 6b30 f33f 9fb7 a041 428d 0ac0
00000010: 3a5e 0e40
1.3154551 1.8999151 20.089659 -2.1648717 2.2245011

decoder.weight f4 [4800, 5]
00000000: 0000 0080 d0e6 b934 706e 20b3 ce46 11b5
00000010: d493 8532 721f 77a3 47d4 aaad a8ec 76af
00000020: dda8 41b4 1250 b832 2dc5 6da3 57e2 d1a7
00000030: a4c9 f4a9 a5e1 f131 d6b9 eeb3 d516 5fa3
00000040: ffd4 0126 194f 65a7 be6b 2b2d bed0 abb0
00000050: 671a 4ca3 a570 b7a5 b6b8 1428 4331 e32b
00000060: 3560 55b0 0ad4 35a3 6662 6a25 2abf b5a6
00000070: b3cc d528 cb4d a7ae 422e 1da3 fde6 7e23
00000080: 34e3 4527 7ee2 0325 b5e6 b0ab 38f2 02a3
00000090: c518 2125 3b23 46a7 dd15 3a27 fb20 a329
000000a0: 9e87 cfa2 7520 1a25 7fe5 02a7 1389 fe25
000000b0: 04a9 7da7 9139 98a2 e284 bb22 4a99 e525
000000c0: 514d faa4 76a6 8c26 9b40 41a2 4043 eaa3
000000d0: 8ff4 0326 2024 39a6 8e4e 8e26 df89 a4a1
000000e0: 8a1b 29a3 bf9b 1fa5 3470 5aa4 bf9b 4c24
000000f0: 590f e020 f748 0fa2 a8ce a724 d6cc 9022
00000100: 62c2 db24 e72d 0922 5e47 85a2 2300 d5a4
00000110: bf3a 7ba3 e50c 98a4 28b8 7422 24dc 38a2
00000120: caa1 aca1 506c 0d21 54f2 77a2 9fe7 ae22
00000130: a6af 43a2 71ef 05a2 18e7 c121 3e15 53a2
00000140: 6ba0 e122 ee96 49a2 7a2a 33a2 22a4 1d22
00000150: 9f4a 21a2 bddf 0823 1bfb 4ba2 8d12 5ca2
00000160: eaea 5522 5105 c6a1 7431 1f23 6939 4ca2
00000170: 4403 7fa2 ee42 8322 fc39 c8a0 6554 3323
00000180: 0d80 4ba2 dd95 8da2 1eaa 9622 78c3 6b21
00000190: 58e2 4423 14a4 4aa2 3467 98a2 3e0f a522
000001a0: 1213 1522 5e83 5323 7211 4aa2 238e a0a2
000001b0: ff5b af22 b43b 6e22 42d4 5e23 7ff3 49a2
000001c0: 45b4 a6a2 f9e3 b622 4de0 9d22 ea33 6623
000001d0: fe2e 4aa2 96e7 aaa2 881d bc22 4395 b822
000001e0: b2cd 6823 485b 4aa2 1477 aca2 1f1b be22
000001f0: bc23 c222 0794 92bb 314c 423b 57ec 85b9
00000200: 16a1 8bba e939 e6ba ccd2 90bb 907c 3c3b
00000210: 4f54 85b9 7492 8dba 6f7d dbba 08cf 8bbb
00000220: cd73 2c3b 0005 86b9 def0 92ba 3159 bdba
00000230: 2a09 84bb 66a9 153b 298c 8ab9 c065 99ba
00000240: d0b2 90ba 96e8 73bb 1c27 f83a 935b 91b9
00000250: e902 9dba 38c7 35ba eae3 5bbb c7cc c53a
00000260: 4027 97b9 ab89 9aba 1cf4 81b9 fdc2 40bb
00000270: 084f 983a 9d4a 99b9 02ad 90ba 0433 5539
00000280: 9a42 23bb 6d31 633a ca6b 96b9 25b9 7fba
00000290: 421e 263a e610 04bb bd04 243a 1775 8eb9
000002a0: 6519 53ba 7391 853a 2582 c7ba f766 e339
000002b0: c742 82b9 e30c 1fba f562 af3a 4b89 85ba
000002c0: f52c 9339 bd41 66b9 a3ae cdb9 e33c ce3a
000002d0: cbaf 05ba 875e 2139 bf7a 44b9 11c9 33b9
000002e0: 4378 e03a 8bc5 9835 78ff 2438 8c5e 20b9
000002f0: 8c0b 5038 671d e53a 2b44 063a 3b02 a2b8
00000300: e5cd f2b8 d1e1 8b39 6ee7 db3a 02cd 853a
00000310: 4840 5cb9 0b99 9ab8 80d2 f939 8e3b c53a
00000320: 68bb c73a 7963 c3b9 c7c7 c3b7 b096 303a
00000330: 621b a23a 9126 043b 6768 17ba 1357 2438
00000340: d2f1 5e3a 7726 683a ce4f 233b b2d5 5aba
00000350: 401f f538 d89b 823a 8fac f439 84c6 403b
00000360: 2eb1 96ba 14eb 5c39 fc29 903a 5c15 8db5
00000370: d3dc 5b3b a427 c7ba 11ca a639 7ce7 963a
00000380: d2cf 01ba 8cd6 733b a0bf fcba 11c1 e239
00000390: 7b95 963a 6c9f 81ba f1fa 833b 9295 19bb
000003a0: d233 0e3a a2a7 903a f4f0 bdba 67bc 8b3b
000003b0: 5ad9 31bb 32fe 253a 4a71 883a a163 f0ba
000003c0: 17bd 903b 2900 43bb e634 353a 3cef 813a
000003d0: 2049 09bb 2f7d 923b db3f 49bb 2d4d 3a3a
000003e0: 692b 7f3a 1261 0fbb a5e3 0ebc c84b b53b
000003f0: e015 03ba f666 01bb ba10 72bb 182a 0dbc
-0.0 3.4626873e-07 -3.7353345e-08 -5.4119744e-07 1.5550462e-08 -1.3396556e-17 -1.9421032e-11 -2.2457647e-10
-1.8035958e-07 2.1456831e-08 -1.2889549e-17 -5.825455e-15 -1.0870756e-13 7.039676e-09 -1.1116542e-07 -1.2093689e-17
4.504453e-16 -3.1823013e-15 9.744148e-12 -1.2501216e-09 -1.1064453e-17 -3.182177e-16 8.255703e-15 1.6142993e-12
-7.7625667e-10 -9.856931e-18 2.0329603e-16 -1.2611213e-15 2.3736525e-14 -7.6080996e-11 -8.5207825e-18 1.3818281e-17
2.746241e-15 1.1439177e-16 -1.2569586e-12 -7.098606e-18 1.3972916e-16 -2.7497118e-15 2.5824537e-15 7.244375e-14
-5.6251053e-18 1.3368368e-16 -1.8165534e-15 4.4154861e-16 -3.5202427e-15 -4.1260633e-18 5.0827147e-18 3.982904e-16
-1.08551196e-16 9.759571e-16 -2.619058e-18 -2.5398812e-17 4.5781194e-16 -6.4233727e-16 9.874522e-16 -1.1149566e-18
-9.16734e-18 -1.384382e-16 -4.7366254e-17 4.436737e-17 3.7957232e-19 -1.9418741e-18 7.2774794e-17 3.9248157e-18
9.530541e-17 1.8591263e-18 -3.6125285e-18 -9.237426e-17 -1.3619177e-17 -6.5941336e-17 3.3165658e-18 -2.5053191e-18
-1.1697999e-18 4.791601e-19 -3.360303e-18 4.7408033e-18 -2.6520415e-18 -1.815162e-18 1.3139359e-18 -2.8607078e-18
6.115622e-18 -2.7320481e-18 -2.428151e-18 2.1364359e-18 -2.1859073e-18 7.419953e-18 -2.7644564e-18 -2.982538e-18
2.8991245e-18 -1.3418409e-18 8.629879e-18 -2.7677548e-18 -3.4560673e-18 3.5578486e-18 -3.391969e-19 9.721481e-18
-2.757942e-18 -3.83768e-18 4.08377e-18 7.98798e-19 1.06731114e-17 -2.7462967e-18 -4.1308953e-18 4.4739478e-18
2.0203361e-18 1.1466151e-17 -2.738534e-18 -4.351858e-18 4.753125e-18 3.2286621e-18 1.20795915e-17 -2.7369485e-18
-4.518526e-18 4.9572574e-18 4.2792423e-18 1.2479318e-17 -2.7400982e-18 -4.6323793e-18 5.098877e-18 5.0031337e-18
1.2620303e-17 -2.7424429e-18 -4.6746772e-18 5.152832e-18 5.262164e-18 -0.0044732126 0.0029647464 -0.00025543824
-0.0010652866 -0.0017564866 -0.00441966 0.0028760768 -0.00025430552 -0.0010801093 -0.0016745756 -0.0042666234
0.002631414 -0.00025562197 -0.00112107 -0.0014446137 -0.0040294128 0.0022836565 -0.0002642584 -0.0011703297
-0.0011039618 -0.003721749 0.0018932554 -0.00027724783 -0.0011979017 -0.0006934288 -0.0033552595 0.0015090936
-0.00028830208 -0.0011790296 -0.00024786673 -0.0029413097 0.0011620233 -0.00029238025 -0.0011037888 0.00020332268
-0.0024911524 0.0008666728 -0.0002869054 -0.0009755067 0.0006336906 -0.0020151674 0.00062568096 -0.0002717159
-0.00080527953 0.0010190442 -0.0015221281 0.0004337353 -0.00024845285 -0.0006067289 0.0013380932 -0.0010188011
0.0002807152 -0.00021958999 -0.00039230761 0.0015734698 -0.00050997426 0.0001538937 -0.00018737743 -0.00017145673
0.0017125685 1.1382375e-06 3.933857e-05 -0.0001529401 4.960182e-05 0.0017480076 0.0005121852 -7.7251774e-05
-0.0001157781 0.00026680392 0.0016777345 0.0010208192 -0.00021004782 -7.371799e-05 0.00047649816 0.0015047656
0.0015238347 -0.0003726741 -2.333884e-05 0.00067363214 0.001236778 0.002016459 -0.000577575 3.918174e-05
0.0008504662 0.00088558294 0.0024919393 -0.0008347883 0.00011688331 0.0009964658 0.00046667873 0.00294152
-0.0011496895 0.00021068408 0.001099884 -1.0511535e-06 0.003354837 -0.0015194309 0.00031812539 0.001151308
-0.0004951927 0.0037206737 -0.0019283183 0.00043249925 0.001148864 -0.000988943 0.0040277173 -0.0023435098
0.0005424592 0.0011036287 -0.0014491365 0.0042644027 -0.0027137608 0.00063321285 0.0010409739 -0.0018340239
0.0044170725 -0.0029754734 0.00069124845 0.0009913216 -0.0020948127 0.0044704895 -0.0030708227 0.0007106837
0.00097339466 -0.0021877927 -0.008721267 0.0055327155 -0.0005000513 -0.0019745207 -0.003693624 -0.008615993

decoder.bias f4 [4800]
00000000: 58a9 e0a4 a05a dda4 5c88 d3a4 aea1 c3a4
00000010: 11a3 aea4 81fe 95a4 538d 76a4 7fa7 3fa4
00000020: 643c 09a4 88ef a8a3 579f 07a3 6851 6422
00000030: 8207 7023 0d5f ce23 e278 0f24 4344 3424
00000040: 6ec3 5424 d919 7024 84cf 8224 0a9a 8a24
00000050: 39bd 8f24 cff1 9224 2714 9524 b595 9624
00000060: 8330 9724 03d8 2f3b 73db 323b 111b 403b
00000070: 1b3f 5c3b 56c7 813b 7d3c 963b 06cc a63b
00000080: 8075 b03b 3b30 b23b 7975 ac3b b688 a03b
00000090: e4c6 8f3b a032 763b 864e 453b 6d78 0b3b
000000a0: 98c8 8b3a 8f5b 6db9 e7e1 eaba 9652 6ebb
000000b0: 49de babb b89a 00bc 9e69 21bc 7992 3bbc
000000c0: a2d5 4bbc 1d36 51bc 4722 d23b d17d d33b
000000d0: 07b7 db3b b0b3 ef3b 394e 063c 1408 153c
000000e0: 10e6 1f3c 005e 243c 2cb9 213c e7a2 183c
000000f0: cb77 0a3c fb3e f13b f212 c83b 0bc3 993b
00000100: acef 493b 4bcc 9b3a 69c7 8eba e4b0 7bbb
00000110: 2b4c e8bb 5f09 30bc e687 6ebc 4381 94bc
00000120: 5fd6 abbc 7f52 babc 0b1a bfbc f68e 3e3c
00000130: 08e2 3d3c c4e2 3e3c c17d 453c dc84 503c
00000140: 7afa 5a3c 75e2 5f3c 405c 5c3c 29f3 4f3c
00000150: 7afd 3b3c 8ba9 223c 7d19 063c 5f6b cf3b
00000160: 9c8e 8f3b 207f 153b c75f bbb8 a4ee 3cbb
00000170: 2f5b ccbb 243f 27bc e8ed 70bc b328 9fbc
00000180: 2d84 c3bc 8b89 e0bc 767d f2bc df63 f8bc
00000190: 39a2 933c ddff 913c a309 8f3c b587 8d3c
000001a0: bc6a 8d3c a35b 8c3c 38ec 873c 01b1 7d3c
000001b0: 7e69 623c 6a1e 403c 5dc3 193c 0037 e43b
000001c0: 3fe7 953b ddc5 123b 80d8 e3b8 ce7a 2bbb
000001d0: 736d b3bb 1b49 11bc ed32 53bc 602e 8fbc
000001e0: cdec b6bc 6264 dcbc 723a fabc 4e45 06bd
000001f0: c741 09bd dec1 ca3c 596e c73c 5fbf bf3c
00000200: 6c54 b73c 81fb ae3c cdfc a43c e55e 973c
00000210: c343 853c ad42 5e3c b3bc 2c3c fffa f23b
00000220: 2367 8f3b 7165 cb3a 70e8 86ba 3b71 61bb
00000230: 526e bfbb a875 0abc 8815 3cbc e4cc 76bc
00000240: 6b0f 9dbc fdd7 c0bc 9591 e2bc 8b31 fdbc
00000250: eba2 06bd ec37 09bd 8c59 fc3c 7745 f73c
00000260: f798 ea3c bfb5 da3c be6c c93c ffea b53c
00000270: f8e0 9e3c e3ed 833c c2c1 4b3c 40be 0c3c
00000280: 544f 9d3b e5e2 a63a 07e8 f3ba 30bd 95bb
00000290: 88f5 e2bb cf03 15bc a222 39bc 3492 61bc
000002a0: dd75 88bc 8ea3 a3bc 7d8c c0bc 6795 dbbc
000002b0: 367b f0bc b8ae fcbc 473d 00bd 797b 103d
000002c0: 1237 0d3d 3ec3 043d 6332 f33c ae30 da3c
000002d0: 8598 be3c 58c8 9f3c 199c 7b3c bb74 333c
000002e0: 0d45 d53b 173b 143b f95a cfba 6652 a0bb
000002f0: 0e3e fabb d5eb 21bc 9125 41bc c15a 5ebc
00000300: 6241 7dbc 964b 90bc a86d a4bc 91a8 b9bc
00000310: d90f cdbc b460 dbbc 5922 e3bc 945f e5bc
00000320: fbcd 193d 2317 163d b04d 0c3d d31a fe3c
00000330: 9e12 e03c ea50 bf3c 6ab6 9b3c 0738 6b3c
00000340: cb64 1c3c 2b01 9d3b d8b1 ab39 0e1b 6fbb
00000350: 54b6 e5bb e24c 1fbc 9819 42bc e59e 5dbc
00000360: a529 75bc 531b 86bc aab7 92bc 36c1 a0bc
00000370: ca28 afbc caa4 bbbc 7ced c3bc 079c c7bc
00000380: b76c c8bc 005a 193d 898a 153d ca66 0b3d
00000390: 1006 fb3c 9b66 db3c 9e1c b93c 204a 943c
000003a0: 96be 5a3c a415 0b3c 850b 743b 5647 3dba
000003b0: f1ae 98bb 4185 02bc 14be 2dbc 1cd3 4ebc
000003c0: c1d9 67bc 20c6 7bbc 22de 86bc 7112 90bc
000003d0: 34d4 99bc 1442 a3bc 6c90 aabc 5647 aebc
000003e0: ccde aebc d49b aebc 2d39 103d 3aa7 0c3d
000003f0: a81d 033d f9fb eb3c 1712 ce3c b2af ad3c
-9.7431394e-17 -9.5997e-17 -9.1737665e-17 -8.4841665e-17 -7.5736716e-17 -6.5049596e-17 -5.3462453e-17 -4.1558398e-17
-2.9758292e-17 -1.8316042e-17 -7.352106e-18 3.0942858e-18 1.3012016e-17 2.237482e-17 3.1110574e-17 3.9089098e-17
4.6135707e-17 5.2063598e-17 5.673006e-17 6.010891e-17 6.233692e-17 6.3727047e-17 6.465259e-17 6.5305744e-17
6.556799e-17 0.0026831634 0.0027291446 0.0029313008 0.003360695 0.0039605303 0.0045848475 0.0050902395
0.005385101 0.0054378784 0.0052630273 0.0048991097 0.0043877233 0.0037566796 0.0030106618 0.0021281496
0.001066464 -0.0002263619 -0.0017920107 -0.0036365143 -0.005702768 -0.007849388 -0.009851841 -0.011448496
-0.012441071 -0.012769249 0.0064127776 0.0064542075 0.006705168 0.0073151216 0.008197361 0.009096164
0.009759441 0.010032177 0.009870809 0.009316183 0.008451412 0.007362244 0.006105774 0.0046924404
0.0030813022 0.0011886446 -0.0010893169 -0.0038404996 -0.007089158 -0.010744422 -0.014558768 -0.018128043
-0.020976244 -0.022744415 -0.023327848 0.011630764 0.011589535 0.011650745 0.012053908 0.012726989
0.013365382 0.013664831 0.0134497285 0.012692251 0.011474008 0.0099281175 0.008184788 0.0063299383
0.004381014 0.0022811368 -8.934695e-05 -0.0028828764 -0.006236456 -0.010207925 -0.014705159 -0.019428587
-0.023866737 -0.027409336 -0.02960084 -0.03032106 0.01802169 0.0178222 0.01746065 0.017276624
0.017262809 0.01713354 0.01659213 0.015484096 0.013819097 0.011726001 0.009384957 0.0069645643
0.004574686 0.0022395768 -0.0001086453 -0.0026165727 -0.005475694 -0.008867527 -0.01289056 -0.017478168
-0.022329712 -0.026903335 -0.030545447 -0.032780938 -0.033509996 0.024750646 0.02434461 0.023406683
0.022379123 0.02136016 0.020140076 0.018477866 0.016267663 0.013565701 0.010543036 0.007415175
0.0043763085 0.0015517903 -0.001029266 -0.0034399766 -0.0058420086 -0.008450903 -0.011479743 -0.015063498
-0.01917239 -0.023540491 -0.02765731 -0.030907413 -0.032870214 -0.033500597 0.030804418 0.03018449
0.028637392 0.026697991 0.024587985 0.022206781 0.019394383 0.016104644 0.012436332 0.008590281
0.0048007164 0.0012732415 -0.0018608578 -0.004569672 -0.0069262423 -0.009095146 -0.011299761 -0.013767768
-0.016657764 -0.01997545 -0.02350449 -0.026804639 -0.029355627 -0.030845031 -0.03130844 0.035274003
0.034476347 0.03241276 0.029687112 0.02663454 0.023266086 0.019504711 0.015357041 0.010953124
0.0065084756 0.0022618228 -0.0015819959 -0.004892635 -0.007636792 -0.009882887 -0.011788742 -0.013571442
-0.015457483 -0.017614167 -0.02007182 -0.022663387 -0.02503197 -0.02677951 -0.02772634 -0.027999677
0.037549954 0.03664316 0.034253776 0.03101865 0.027352627 0.023354013 0.01900788 0.01435662
0.009545515 0.004791399 0.00032748166 -0.0036484632 -0.0070102606 -0.00972292 -0.011846922 -0.013526653
-0.014963542 -0.016370451 -0.017909843 -0.01962338 -0.021381754 -0.022905726 -0.023916952 -0.024366392
-0.024465902 0.037439346 0.03650907 0.034033574 0.03064254 0.026782325 0.022596654 0.018101752
0.013351103 0.008489046 0.0037238311 -0.0007220408 -0.0046595265 -0.0079663405 -0.0106044 -0.012623575
-0.014151038 -0.015367061 -0.016463343 -0.017586919 -0.018777944 -0.01992897 -0.020820819 -0.02127425
-0.021346472 -0.021314539 0.035210777 0.034339167 0.032010704 0.028806673 0.02515511 0.021201942
