dataRBC/RBC_r28L_T100R100_pca7_model_dict.pth (torch, 289747 bytes, 3 tensors)

encoder.bias f4 [7]
0	0x3fa860d5	1.3154551
1	0x3ff33057	1.8999127
2	0x41a0b7a2	20.089664
3	0xc00a8d54	-2.164876
4	0x400e5e46	2.224504
5	0xbd868ccc	-0.065698236
6	0x3fdc4ee8	1.721158

decoder.weight f4 [4800, 7]
0	0x80000000	-0.0
1	0xb44cb35f	-1.9064235e-07
2	0xb10c0b32	-2.0379045e-09
3	0x351ed60c	5.9171066e-07
4	0x335c14de	5.124172e-08
5	0xb41c1602	-1.4536639e-07
6	0x3326241b	3.8682725e-08
7	0xa3771f72	-1.3396556e-17
8	0x3089465d	9.98806e-10
9	0xb28aee70	-1.6173743e-08
10	0xb3e1a019	-1.05065006e-07
11	0x328801e9	1.5833352e-08
12	0x348782ab	2.5240783e-07
13	0x3409f1c0	1.2847067e-07
14	0xa36dc52d	-1.2889549e-17
15	0xa96a5975	-5.203603e-14
16	0x2940d75c	4.281936e-14
17	0xb3226a1f	-3.781508e-08
18	0x33044a86	3.0801424e-08
19	0xb309bc32	-3.206896e-08
20	0x331e143f	3.6805655e-08
21	0xa35f16d4	-1.2093688e-17
22	0x276a2d6a	3.2498642e-15
23	0xa7c5a24a	-5.485444e-15
24	0x312ee655	2.545126e-09
25	0xb2e1d11e	-2.6288543e-08
26	0xb3f0642c	-1.1194092e-07
27	0xb2f135c9	-2.8080551e-08
28	0xa34c1a67	-1.1064453e-17
29	0x25b7d23b	3.1887897e-16
30	0x27114ded	2.0165036e-15
31	0xa9a88215	-7.4832644e-14
32	0xad19576d	-8.7164555e-12
33	0x3126b01e	2.425629e-09
34	0x33b5a041	8.457619e-08
35	0xa335d408	-9.856929e-18
36	0x2613542a	5.1114934e-16
37	0x26a84dc3	1.1678419e-15
38	0xa99d3212	-6.9808864e-14
39	0x2ba97237	1.2039873e-12
40	0xb31d7677	-3.6662154e-08
41	0x32da41f1	2.5408527e-08
42	0xa31d2e43	-8.520783e-18
43	0xa4b683cb	-7.9153184e-17
44	0x2570c370	2.0882899e-16
45	0xa5c9f831	-3.5036123e-16
46	0x29ba4b76	8.27315e-14
47	0xad9ce3fc	-1.7836392e-11
48	0xb0f5df13	-1.7889498e-09
49	0xa302f237	-7.098605e-18
50	0xa63cfcba	-6.556811e-16
51	0x26608b8b	7.790473e-16
52	0x270e209b	1.9724134e-15
53	0xa8fa8023	-2.7811146e-14
54	0x2c6d0de3	3.3687434e-12
55	0x2e00d76c	2.9295164e-11
56	0xa2cf879e	-5.6251053e-18
57	0xa527045a	-1.4486415e-16
58	0xa2ce7574	-5.596077e-18
59	0x26fd60b8	1.7581617e-15
60	0xa73e58fa	-2.6416031e-15
61	0xa9a545b8	-7.339566e-14
62	0xab3fbf89	-6.812264e-13
63	0xa2983992	-4.1260637e-18
64	0x257467b9	2.1198769e-16
65	0x24aa3149	7.380924e-17
66	0xa70028f2	-1.7785765e-15
67	0x270fbc36	1.9947266e-15
68	0xa79829c9	-4.223378e-15
69	0x2747dbc5	2.7735935e-15
70	0xa241409a	-2.6190577e-18
71	0xa482b936	-5.669227e-17
72	0xa4789554	-5.3902914e-17
73	0x24f0686b	1.042603e-16
74	0x269ca476	1.0869252e-15
75	0x2712e735	2.0386908e-15
76	0xa54bb3cf	-1.7668365e-16
77	0xa1a489dd	-1.1149564e-18
78	0xa5534cca	-1.832735e-16
79	0xa54e0675	-1.786984e-16
80	0x26efa8bd	1.6629693e-15
81	0xa7352ce4	-2.5143131e-15
82	0x280a5c3d	7.68054e-15
83	0xa7cc63cf	-5.6729587e-15
84	0x20e00f5d	3.7957243e-19
85	0x231443cc	8.037453e-18
86	0xa4b950c6	-8.0367796e-17
87	0x24179975	3.287289e-17
88	0x25b77777	3.1826392e-16
89	0x26d3f010	1.4706135e-15
90	0x25968ff7	2.6118407e-16
91	0x22092de8	1.8591265e-18
92	0xa442c33f	-4.2232424e-17
93	0xa55cf73e	-1.9165727e-16
94	0x264fe34a	7.2125586e-16
95	0x250d2269	1.2241459e-16
96	0x27d2afa9	5.847716e-15
97	0xa6f6b3d8	-1.7118426e-15
98	0x2274b828	3.3165658e-18
99	0x251fb927	1.3853784e-16
100	0x25a6b776	2.8920728e-16
101	0xa703a1b5	-1.8267564e-15
102	0x2614a607	5.1572824e-16
103	0xa838cb98	-1.0258199e-14
104	0x25f1e265	4.1960247e-16
105	0x22aee79f	4.7408033e-18
106	0x224b9a5e	2.7593351e-18
107	0x2395b754	1.6232255e-17
108	0xa4b56e60	-7.868322e-17
109	0x222bd0c1	2.3285335e-18
110	0xa626de9a	-5.78945e-16
111	0x251c9e81	1.3584546e-16
112	0x22e1a06b	6.115622e-18
113	0xa24996d6	-2.7320431e-18
114	0xa2332a7c	-2.4281515e-18
115	0x221da417	2.1364336e-18
116	0xa2214a8d	-2.1859036e-18
117	0xa217a925	-2.055386e-18
118	0x236f4de6	1.2972712e-17
119	0x2308dfbd	7.419953e-18
120	0xa24bfb02	-2.7644513e-18
121	0xa25c1284	-2.9825362e-18
122	0x2255eada	2.8991212e-18
123	0xa1c60546	-1.3418398e-18
124	0xa1ead2f6	-1.5912298e-18
125	0x23b95c8a	2.0096932e-17
126	0x231f3176	8.629881e-18
127	0xa24c3940	-2.7677463e-18
128	0xa27f034f	-3.4560696e-18
129	0x228342ec	3.5578477e-18
130	0xa0c83acc	-3.3920226e-19
131	0xa19272b0	-9.923702e-19
132	0x23fb4baf	2.7245528e-17
133	0x23335464	9.72148e-18
134	0xa24b7fea	-2.7579347e-18
135	0xa28d95dc	-3.8376796e-18
136	0x2296aa16	4.0837667e-18
137	0x216bc315	7.9879286e-19
138	0xa0accbdf	-2.9272844e-19
139	0x241da9bb	3.4187716e-17
140	0x2344e257	1.0673111e-17
141	0xa24aa3e3	-2.7462866e-18
142	0xa2986735	-4.1308957e-18
143	0x22a50f48	4.473952e-18
144	0x221512e6	2.020327e-18
145	0x2102702b	4.4194166e-19
146	0x243ba410	4.0688128e-17
147	0x2353835e	1.1466151e-17
148	0xa24a1147	-2.7385251e-18
149	0xa2a08e31	-4.3518638e-18
150	0x22af5c06	4.753128e-18
151	0x226e3b85	3.2286524e-18
152	0x21a6139f	1.1253791e-18
153	0x24566164	4.6486346e-17
154	0x235ed442	1.20795915e-17
155	0xa249f353	-2.7369394e-18
156	0xa2a6b447	-4.5185266e-18
157	0x22b6e403	4.9572616e-18
158	0x229de022	4.2792245e-18
159	0x21f4b262	1.6581301e-18
160	0x246c4d5b	5.1239865e-17
161	0x236633ea	1.2479318e-17
162	0xa24a2ecc	-2.7400879e-18
163	0xa2aae799	-4.6323806e-18
164	0x22bc1d8b	5.098878e-18
165	0x22b8951f	5.003119e-18
166	0x2211c2e5	1.975434e-18
167	0x247b2c08	5.4464245e-17
168	0x2368cdb2	1.2620303e-17
169	0xa24a5b16	-2.7424325e-18
170	0xa2ac7711	-4.674676e-18
171	0x22be1b23	5.1528335e-18
172	0x22c2239d	5.2621512e-18
173	0x22192643	2.0755622e-18
174	0x2480427e	5.5623793e-17
175	0xbb929406	-0.004473212
176	0x3b424c1d	0.0029647418
177	0xb985ec4e	-0.00025543798
178	0xba8ba0e5	-0.0010652809
179	0xbae639df	-0.0017564854
180	0xbab0c740	-0.0013487116
181	0x3b248901	0.0025106075
182	0xbb90d2cc	-0.00441966
183	0x3b3c7c87	0.0028760748
184	0xb9855444	-0.0002543052
185	0xba8d9247	-0.001080104
186	0xbadb7d62	-0.0016745741
187	0xbab1b431	-0.001355773
188	0x3b1e2dcc	0.0024136184
189	0xbb8bcf08	-0.0042666234
190	0x3b2c73c1	0.0026314112
191	0xb98604f9	-0.00025562177
192	0xba92f0b0	-0.0011210646
193	0xbabd5925	-0.0014446123
194	0xbab33fb9	-0.0013675607
195	0x3b0caaf6	0.0021464205
196	0xbb84092a	-0.0040294128
197	0x3b15a958	0.0022836532
198	0xb98a8c1e	-0.00026425807
199	0xba996594	-0.0011703246
200	0xba90b2bd	-0.0011039596
201	0xbab2a971	-0.001363082
202	0x3ae586f9	0.0017511538
203	0xbb73e894	-0.0037217485
204	0x3af82704	0.0018932526
205	0xb9915b88	-0.0002772475
206	0xba9d02c3	-0.0011978972
207	0xba35c717	-0.0006934269
208	0xbaadf90e	-0.0013273077
209	0x3aa558e0	0.0012614988
210	0xbb5be3ea	-0.0033552595
211	0x3ac5ccad	0.0015090905
212	0xb997272d	-0.00028830153
213	0xba9a898c	-0.001179026
214	0xb981f3de	-0.00024786493
215	0xbaa4d475	-0.0012575524
216	0x3a3a3ab5	0.0007104085
217	0xbb40c2fb	-0.0029413092
218	0x3a984ef4	0.001162021
219	0xb9994a91	-0.0002923799
220	0xba90ace4	-0.0011037854
221	0x3955339b	0.00020332487
222	0xba979442	-0.001156457
223	0x390cf5e3	0.0001344304
224	0xbb234299	-0.0024911521
225	0x3a633151	0.00086667115
226	0xb9966bc5	-0.00028690524
227	0xba7fb8ec	-0.00097550335
228	0x3a261e6f	0.00063369324
229	0xba8698f9	-0.0010268978
230	0xb9e1e0f9	-0.00043082962
231	0xbb0410e5	-0.0020151671
232	0x3a2404a9	0.0006256798
233	0xb98e7510	-0.0002717157
234	0xba53193c	-0.00080527714
235	0x3a859185	0.0010190463
236	0xba645f3c	-0.0008711701
237	0xba79dbb4	-0.00095313345
238	0xbac78225	-0.0015221281
239	0x39e366d7	0.00043373436
240	0xb98242c0	-0.00024845265
241	0xba1f0cc8	-0.0006067273
242	0x3aaf6304	0.0013380949
243	0xba3558c5	-0.000691783
244	0xbab7e98f	-0.0014031398
245	0xba85894b	-0.0010188011
246	0x39932ce3	0.00028071468
247	0xb96641b6	-0.00021958989
248	0xb9cdae7c	-0.00039230648
249	0x3ace3cf2	0.0015734716
250	0xba0101fe	-0.00049212563
251	0xbae5fb16	-0.0017546143
252	0xba05afcb	-0.00050997426
253	0x39215e79	0.0001538935
254	0xb9447ab9	-0.00018737734
255	0xb933c8eb	-0.00017145618

decoder.bias f4 [4800]
0	0xa4e0a958	-9.7431394e-17
1	0xa4dd5aa0	-9.5997e-17
2	0xa4d3885c	-9.1737665e-17
3	0xa4c3a1ae	-8.4841665e-17
4	0xa4aea311	-7.5736716e-17
5	0xa495fe81	-6.5049596e-17
6	0xa4768d53	-5.3462453e-17
7	0xa43fa77f	-4.1558398e-17
8	0xa4093c64	-2.9758292e-17
9	0xa3a8ef88	-1.8316042e-17
10	0xa3079f57	-7.352106e-18
11	0x22645168	3.0942858e-18
12	0x23700782	1.3012016e-17
13	0x23ce5f0d	2.237482e-17
14	0x240f78e2	3.1110574e-17
15	0x24344443	3.9089098e-17
16	0x2454c36e	4.6135707e-17
17	0x247019d9	5.2063598e-17
18	0x2482cf84	5.673006e-17
19	0x248a9a0a	6.010891e-17
20	0x248fbd39	6.233692e-17
21	0x2492f1cf	6.3727047e-17
22	0x24951427	6.465259e-17
23	0x249695b5	6.5305744e-17
24	0x24973083	6.556799e-17
25	0x3b2fd803	0.0026831634
26	0x3b32db73	0.0027291446
27	0x3b401b11	0.0029313008
28	0x3b5c3f1b	0.003360695
29	0x3b81c756	0.0039605303
30	0x3b963c7d	0.0045848475
31	0x3ba6cc06	0.0050902395
32	0x3bb07580	0.005385101
33	0x3bb2303b	0.0054378784
34	0x3bac7579	0.0052630273
35	0x3ba088b6	0.0048991097
36	0x3b8fc6e4	0.0043877233
37	0x3b7632a0	0.0037566796
38	0x3b454e86	0.0030106618
39	0x3b0b786d	0.0021281496
40	0x3a8bc898	0.001066464
41	0xb96d5b8f	-0.0002263619
42	0xbaeae1e7	-0.0017920107
43	0xbb6e5296	-0.0036365143
44	0xbbbade49	-0.005702768
45	0xbc009ab8	-0.007849388
46	0xbc21699e	-0.009851841
47	0xbc3b9279	-0.011448496
48	0xbc4bd5a2	-0.012441071
49	0xbc51361d	-0.012769249
50	0x3bd22247	0.0064127776
51	0x3bd37dd1	0.0064542075
52	0x3bdbb707	0.006705168
53	0x3befb3b0	0.0073151216
54	0x3c064e39	0.008197361
55	0x3c150814	0.009096164
56	0x3c1fe610	0.009759441
57	0x3c245e00	0.010032177
58	0x3c21b92c	0.009870809
59	0x3c18a2e7	0.009316183
60	0x3c0a77cb	0.008451412
61	0x3bf13efb	0.007362244
62	0x3bc812f2	0.006105774
63	0x3b99c30b	0.0046924404
64	0x3b49efac	0.0030813022
65	0x3a9bcc4b	0.0011886446
66	0xba8ec769	-0.0010893169
67	0xbb7bb0e4	-0.0038404996
68	0xbbe84c2b	-0.007089158
69	0xbc30095f	-0.010744422
70	0xbc6e87e6	-0.014558768
71	0xbc948143	-0.018128043
72	0xbcabd65f	-0.020976244
73	0xbcba527f	-0.022744415
74	0xbcbf1a0b	-0.023327848
75	0x3c3e8ef6	0.011630764
76	0x3c3de208	0.011589535
77	0x3c3ee2c4	0.011650745
78	0x3c457dc1	0.012053908
79	0x3c5084dc	0.012726989
80	0x3c5afa7a	0.013365382
81	0x3c5fe275	0.013664831
82	0x3c5c5c40	0.0134497285
83	0x3c4ff329	0.012692251
84	0x3c3bfd7a	0.011474008
85	0x3c22a98b	0.0099281175
86	0x3c06197d	0.008184788
87	0x3bcf6b5f	0.0063299383
88	0x3b8f8e9c	0.004381014
89	0x3b157f20	0.0022811368
90	0xb8bb5fc7	-8.934695e-05
91	0xbb3ceea4	-0.0028828764
92	0xbbcc5b2f	-0.006236456
93	0xbc273f24	-0.010207925
94	0xbc70ede8	-0.014705159
95	0xbc9f28b3	-0.019428587
96	0xbcc3842d	-0.023866737
97	0xbce0898b	-0.027409336
98	0xbcf27d76	-0.02960084
99	0xbcf863df	-0.03032106
100	0x3c93a239	0.01802169
101	0x3c91ffdd	0.0178222
102	0x3c8f09a3	0.01746065
103	0x3c8d87b5	0.017276624
104	0x3c8d6abc	0.017262809
105	0x3c8c5ba3	0.01713354
106	0x3c87ec38	0.01659213
107	0x3c7db101	0.015484096
108	0x3c62697e	0.013819097
109	0x3c401e6a	0.011726001
110	0x3c19c35d	0.009384957
111	0x3be43700	0.0069645643
112	0x3b95e73f	0.004574686
113	0x3b12c5dd	0.0022395768
114	0xb8e3d880	-0.0001086453
115	0xbb2b7ace	-0.0026165727
116	0xbbb36d73	-0.005475694
117	0xbc11491b	-0.008867527
118	0xbc5332ed	-0.01289056
119	0xbc8f2e60	-0.017478168
120	0xbcb6eccd	-0.022329712
121	0xbcdc6462	-0.026903335
122	0xbcfa3a72	-0.030545447
123	0xbd06454e	-0.032780938
124	0xbd0941c7	-0.033509996
125	0x3ccac1de	0.024750646
126	0x3cc76e59	0.02434461
127	0x3cbfbf5f	0.023406683
128	0x3cb7546c	0.022379123
129	0x3caefb81	0.02136016
130	0x3ca4fccd	0.020140076
131	0x3c975ee5	0.018477866
132	0x3c8543c3	0.016267663
133	0x3c5e42ad	0.013565701
134	0x3c2cbcb3	0.010543036
135	0x3bf2faff	0.007415175
136	0x3b8f6723	0.0043763085
137	0x3acb6571	0.0015517903
138	0xba86e870	-0.001029266
139	0xbb61713b	-0.0034399766
140	0xbbbf6e52	-0.0058420086
141	0xbc0a75a8	-0.008450903
142	0xbc3c1588	-0.011479743
143	0xbc76cce4	-0.015063498
144	0xbc9d0f6b	-0.01917239
145	0xbcc0d7fd	-0.023540491
146	0xbce29195	-0.02765731
147	0xbcfd318b	-0.030907413
148	0xbd06a2eb	-0.032870214
149	0xbd0937ec	-0.033500597
150	0x3cfc598c	0.030804418
151	0x3cf74577	0.03018449
152	0x3cea98f7	0.028637392
153	0x3cdab5bf	0.026697991
154	0x3cc96cbe	0.024587985
155	0x3cb5eaff	0.022206781
156	0x3c9ee0f8	0.019394383
157	0x3c83ede3	0.016104644
158	0x3c4bc1c2	0.012436332
159	0x3c0cbe40	0.008590281
160	0x3b9d4f54	0.0048007164
161	0x3aa6e2e5	0.0012732415
162	0xbaf3e807	-0.0018608578
163	0xbb95bd30	-0.004569672
164	0xbbe2f588	-0.0069262423
165	0xbc1503cf	-0.009095146
166	0xbc3922a2	-0.011299761
167	0xbc619234	-0.013767768
168	0xbc8875dd	-0.016657764
169	0xbca3a38e	-0.01997545
170	0xbcc08c7d	-0.02350449
171	0xbcdb9567	-0.026804639
172	0xbcf07b36	-0.029355627
173	0xbcfcaeb8	-0.030845031
174	0xbd003d47	-0.03130844
175	0x3d107b79	0.035274003
176	0x3d0d3712	0.034476347
177	0x3d04c33e	0.03241276
178	0x3cf33263	0.029687112
179	0x3cda30ae	0.02663454
180	0x3cbe9885	0.023266086
181	0x3c9fc858	0.019504711
182	0x3c7b9c19	0.015357041
183	0x3c3374bb	0.010953124
184	0x3bd5450d	0.0065084756
185	0x3b143b17	0.0022618228
186	0xbacf5af9	-0.0015819959
187	0xbba05266	-0.004892635
188	0xbbfa3e0e	-0.007636792
189	0xbc21ebd5	-0.009882887
190	0xbc412591	-0.011788742
191	0xbc5e5ac1	-0.013571442
192	0xbc7d4162	-0.015457483
193	0xbc904b96	-0.017614167
194	0xbca46da8	-0.02007182
195	0xbcb9a891	-0.022663387
196	0xbccd0fd9	-0.02503197
197	0xbcdb60b4	-0.02677951
198	0xbce32259	-0.02772634
199	0xbce55f94	-0.027999677
200	0x3d19cdfb	0.037549954
201	0x3d161723	0.03664316
202	0x3d0c4db0	0.034253776
203	0x3cfe1ad3	0.03101865
204	0x3ce0129e	0.027352627
205	0x3cbf50ea	0.023354013
206	0x3c9bb66a	0.01900788
207	0x3c6b3807	0.01435662
208	0x3c1c64cb	0.009545515
209	0x3b9d012b	0.004791399
210	0x39abb1d8	0.00032748166
211	0xbb6f1b0e	-0.0036484632
212	0xbbe5b654	-0.0070102606
213	0xbc1f4ce2	-0.00972292
214	0xbc421998	-0.011846922
215	0xbc5d9ee5	-0.013526653
216	0xbc7529a5	-0.014963542
217	0xbc861b53	-0.016370451
218	0xbc92b7aa	-0.017909843
219	0xbca0c136	-0.01962338
220	0xbcaf28ca	-0.021381754
221	0xbcbba4ca	-0.022905726
222	0xbcc3ed7c	-0.023916952
223	0xbcc79c07	-0.024366392
224	0xbcc86cb7	-0.024465902
225	0x3d195a00	0.037439346
226	0x3d158a89	0.03650907
227	0x3d0b66ca	0.034033574
228	0x3cfb0610	0.03064254
229	0x3cdb669b	0.026782325
230	0x3cb91c9e	0.022596654
231	0x3c944a20	0.018101752
232	0x3c5abe96	0.013351103
233	0x3c0b15a4	0.008489046
234	0x3b740b85	0.0037238311
235	0xba3d4756	-0.0007220408
236	0xbb98aef1	-0.0046595265
237	0xbc028541	-0.0079663405
238	0xbc2dbe14	-0.0106044
239	0xbc4ed31c	-0.012623575
240	0xbc67d9c1	-0.014151038
241	0xbc7bc620	-0.015367061
242	0xbc86de22	-0.016463343
243	0xbc901271	-0.017586919
244	0xbc99d434	-0.018777944
245	0xbca34214	-0.01992897
246	0xbcaa906c	-0.020820819
247	0xbcae4756	-0.02127425
248	0xbcaedecc	-0.021346472
249	0xbcae9bd4	-0.021314539
250	0x3d10392d	0.035210777
251	0x3d0ca73a	0.034339167
252	0x3d031da8	0.032010704
253	0x3cebfbf9	0.028806673
254	0x3cce1217	0.02515511
255	0x3cadafb2	0.021201942
