dataRBC/RBC_r28L_T100R100_pca3_model_dict.pth (torch, 136147 bytes, 3 tensors)

encoder.bias f4 [3]
000000 d7 60 a8 3f a2 30 f3 3f a4 b7 a0 41
       1.3154553 1.8999217 20.089668

decoder.weight f4 [4800, 3]
000000 00 00 00 80 1f 34 05 35 c0 1f 52 b3 74 1f 77 a3
       -0.0 4.9622207e-07 -4.892331e-08 -1.3396557e-17
000010 1d 5a 52 b0 11 b3 f3 b1 2d c5 6d a3 3d 20 0d aa
       -7.6525614e-10 -7.0925883e-09 -1.2889549e-17 -1.25345e-13
000020 f3 98 98 ab d5 16 5f a3 41 bd 0f 24 a9 e3 0a a8
       -1.0842702e-12 -1.2093689e-17 3.1168486e-17 -7.709905e-15
000030 68 1a 4c a3 73 12 b0 a4 d1 b3 9a 27 08 d4 35 a3
       -1.1064454e-17 -7.635909e-17 4.2938544e-15 -9.856929e-18
000040 ac 87 65 a5 6b ef c5 a6 43 2e 1d a3 ef 4b f5 25
       -1.9908551e-16 -1.3734515e-15 -8.520783e-18 4.255218e-16
000050 3f ed 87 a6 38 f2 02 a3 97 58 6b a5 1f 96 81 25
       -9.431812e-16 -7.098606e-18 -2.0413016e-16 2.247966e-16
000060 9e 87 cf a2 62 a3 74 a3 2d 40 b3 a5 91 39 98 a2
       -5.6251053e-18 -1.3261864e-17 -3.1095037e-16 -4.1260633e-18
000070 64 8f d8 23 86 13 fa 22 9a 40 41 a2 26 cf ca a3
       2.3479495e-17 6.7783307e-18 -2.6190577e-18 -2.1988615e-17
000080 0e f9 0f a5 de 89 a4 a1 ce e4 81 a0 a5 cd 0b 23
       -1.2487656e-16 -1.1149565e-18 -2.200486e-19 7.578752e-18
000090 60 0f e0 20 54 3e 0f a2 c4 9f 0b 20 e9 2d 09 22
       3.795725e-19 -1.941311e-18 1.182662e-19 1.8591267e-18
0000a0 6d c5 27 a2 00 f1 18 a1 28 b8 74 22 32 dc 38 a2
       -2.2737237e-18 -5.1818564e-19 3.3165658e-18 -2.505322e-18
0000b0 c3 a1 ac a1 9f e7 ae 22 aa af 43 a2 73 ef 05 a2
       -1.1697991e-18 4.7408033e-18 -2.6520424e-18 -1.8151624e-18
0000c0 6b a0 e1 22 ec 96 49 a2 7e 2a 33 a2 bd df 08 23
       6.115622e-18 -2.7320477e-18 -2.4281519e-18 7.419953e-18
0000d0 27 fb 4b a2 9b 12 5c a2 76 31 1f 23 67 39 4c a2
       -2.764459e-18 -2.982541e-18 8.629881e-18 -2.7677544e-18
0000e0 52 03 7f a2 65 54 33 23 1d 80 4b a2 e9 95 8d a2
       -3.4560702e-18 9.721481e-18 -2.7579453e-18 -3.837685e-18
0000f0 58 e2 44 23 1a a4 4a a2 41 67 98 a2 5e 83 53 23
       1.06731114e-17 -2.746298e-18 -4.1309007e-18 1.1466151e-17
000100 82 11 4a a2 3a 8e a0 a2 42 d4 5e 23 7e f3 49 a2
       -2.7385373e-18 -4.3518675e-18 1.20795915e-17 -2.7369483e-18
000110 57 b4 a6 a2 ec 33 66 23 fa 2e 4a a2 9d e7 aa a2
       -4.5185332e-18 1.247932e-17 -2.7400974e-18 -4.6323822e-18
000120 b2 cd 68 23 50 5b 4a a2 20 77 ac a2 07 94 92 bb
       1.2620303e-17 -2.7424445e-18 -4.674682e-18 -0.0044732126
000130 31 4c 42 3b 40 ec 85 b9 cd d2 90 bb 98 7c 3c 3b
       0.0029647464 -0.00025543757 -0.0044196607 0.0028760787
000140 37 54 85 b9 09 cf 8b bb d0 73 2c 3b ea 04 86 b9
       -0.00025430482 -0.004266624 0.0026314147 -0.00025562133
000150 2b 09 84 bb 67 a9 15 3b 0d 8c 8a b9 94 e8 73 bb
       -0.004029413 0.0022836567 -0.00026425757 -0.0037217485
000160 1e 27 f8 3a 6b 5b 91 b9 ea e3 5b bb c3 cc c5 3a
       0.0018932556 -0.00027724667 -0.0033552595 0.0015090931
000170 18 27 97 b9 fd c2 40 bb 07 4f 98 3a 77 4a 99 b9
       -0.00028830091 -0.0029413097 0.0011620232 -0.00029237915
000180 9a 42 23 bb 6e 31 63 3a ab 6b 96 b9 e7 10 04 bb
       -0.0024911524 0.00086667284 -0.00028690448 -0.0020151676
000190 c1 04 24 3a fb 74 8e b9 24 82 c7 ba f7 66 e3 39
       0.0006256812 -0.00027171508 -0.001522128 0.0004337353
0001a0 b1 42 82 b9 4b 89 85 ba f6 2c 93 39 a7 41 66 b9
       -0.0002484522 -0.0010188011 0.00028071523 -0.00021958967
0001b0 cb af 05 ba 83 5e 21 39 b7 7a 44 b9 63 c5 98 35
       -0.00050997426 0.00015389365 -0.00018737731 1.138233e-06
0001c0 64 ff 24 38 90 5e 20 b9 2b 44 06 3a 48 02 a2 b8
       3.9338498e-05 -0.00015294016 0.0005121852 -7.725187e-05
0001d0 10 ce f2 b8 02 cd 85 3a 51 40 5c b9 54 99 9a b8
       -0.00011577841 0.0010208192 -0.00021004795 -7.371852e-05
0001e0 68 bb c7 3a 80 63 c3 b9 25 c9 c3 b7 92 26 04 3b
       0.0015238347 -0.00037267432 -2.3339477e-05 0.0020164591
0001f0 6a 68 17 ba 39 56 24 38 ce 4f 23 3b b4 d5 5a ba
       -0.0005775752 3.9180948e-05 0.0024919393 -0.0008347884
000200 c2 1e f5 38 84 c6 40 3b 2f b1 96 ba ca ea 5c 39
       0.000116882395 0.00294152 -0.0011496897 0.000210683
000210 d5 dc 5b 3b a5 27 c7 ba ed c9 a6 39 8e d6 73 3b
       0.0033548374 -0.001519431 0.00031812434 0.0037206742
000220 9f bf fc ba ea c0 e2 39 f0 fa 83 3b 93 95 19 bb
       -0.0019283182 0.0004324981 0.004027717 -0.00234351
000230 c7 33 0e 3a 69 bc 8b 3b 5e d9 31 bb 2a fe 25 3a
       0.00054245855 0.0042644036 -0.0027137618 0.0006332124
000240 17 bd 90 3b 2d 00 43 bb df 34 35 3a 2f 7d 92 3b
       0.0044170725 -0.0029754743 0.00069124805 0.0044704895
000250 e0 3f 49 bb 27 4d 3a 3a a6 e3 0e bc c8 4b b5 3b
       -0.0030708238 0.00071068335 -0.008721268 0.0055327155
000260 c4 15 03 ba 19 2a 0d bc 0b cb af 3b 60 56 02 ba
       -0.0005000497 -0.008615994 0.005364781 -0.00049719773
000270 71 3c 08 bc 1b a0 a0 3b c1 85 02 ba c6 9a 00 bc
       -0.008315192 0.0049018986 -0.00049790373 -0.007849401
000280 4d 1e 8b 3b c8 2a 06 ba aa 72 ed bb 98 20 66 3b
       0.0042455555 -0.0005118069 -0.007246335 0.0035114642
000290 33 c4 0b ba 4b f4 d5 bb fc 00 37 3b d5 03 10 ba
       -0.0005331665 -0.006529366 0.002792417 -0.0005493735
0002a0 49 77 bb bb bf a1 0c 3b 9e 49 10 ba 7b b4 9e bb
       -0.005721007 0.0021458713 -0.0005504134 -0.0048432923
0002b0 13 76 d1 3a 4f 5f 0b ba 28 55 80 bb a1 16 97 3a
       0.0015980623 -0.0005316631 -0.0039164014 0.001152713
0002c0 e2 70 01 ba ff ce 41 bb c8 71 51 3a e4 4c e7 b9
       -0.00049377803 -0.0029572842 0.0007989672 -0.0004411704
0002d0 d5 b0 01 bb c9 9d 07 3a a1 27 c7 b9 56 d0 81 ba
       -0.0019789238 0.0005173353 -0.00037985764 -0.0009904008
0002e0 90 c1 94 39 4b 3a a5 b9 9a 34 19 36 54 14 97 38
       0.00028372975 -0.00031514684 2.2829395e-06 7.2040275e-05
0002f0 45 fb 82 b9 cf 64 82 3a 3e 4e 17 b9 e1 0a 40 b9
       -0.00024982743 0.0009948256 -0.0001442963 -0.000183146
000300 1d f4 01 3b 10 2c cd b9 55 35 e8 b8 2c 07 42 3b
       0.001982934 -0.00039133476 -0.00011072556 0.0029606326
000310 50 e3 35 ba 97 eb d4 b7 f4 69 80 3b 08 ce 8c ba
       -0.0006938474 -2.5382074e-05 0.0039188806 -0.0010742554
000320 80 4d aa 38 9a c0 9e 3b 63 3e cb ba 8c ac 62 39
       8.120667e-05 0.0048447372 -0.0015506264 0.00021617318
000330 bc 79 bb 3b 86 c8 0b bb 4d 9e c8 39 71 ec d5 3b
       0.005721299 -0.0021329238 0.00038264916 0.00652843
000340 1a 99 38 bb ef 4b 17 3a 6b 60 ed 3b 2a 45 6a bb
       -0.0028167428 0.0005771508 0.00724416 -0.0035746791
000350 f1 6b 4e 3a d8 8c 00 3c 21 74 8e bb cd fd 81 3a
       0.0007874361 0.00784608 -0.0043473397 0.0009917557
000360 79 2a 08 3c 89 22 a5 bb 34 36 98 3a 47 15 0d 3c
       0.0083109075 -0.0050395173 0.0011612833 0.00861103
000370 84 3a b5 bb d6 70 a6 3a c9 cd 0e 3c ac 1a bb bb
       -0.0055306572 0.0012698423 0.008716055 -0.0057099666
000380 cb 34 ab 3a ae f7 4d bc 14 33 f2 3b 3e 70 3a ba
       0.0013061998 -0.0125712585 0.007391343 -0.00071120623
000390 a9 72 4b bc f2 a8 ea 3b 2d 14 39 ba 0a 40 44 bc
       -0.012417474 0.007161253 -0.00070601964 -0.011978159
0003a0 b6 e8 d5 3b d6 7b 38 ba d2 1e 39 bc 4a 95 b8 3b
       0.0065279854 -0.0007037496 -0.011298852 0.005633031
0003b0 b0 63 3c ba f9 bf 2a bc 76 f5 97 3b 9f a9 42 ba
       -0.00071864855 -0.010421746 0.0046374155 -0.0007425788
0003c0 45 b8 19 bc 28 74 70 3b 22 5e 46 ba 79 93 06 bc
       -0.009382312 0.0036690328 -0.00075671275 -0.008213871
0003d0 a4 d6 37 3b b4 9e 43 ba 0d b0 e3 bb f1 41 08 3b
       0.002805152 -0.0007462308 -0.006948477 0.0020791257
0003e0 54 e2 38 ba d0 fe b7 bb 99 c6 c3 3a ac e3 26 ba
       -0.00070527685 -0.005615093 0.0014936506 -0.0006366323
0003f0 ee dc 8a bb 0e 4b 87 3a 88 e5 0f ba dc c5 39 bb
       -0.0042377627 0.0010322051 -0.000548922 -0.0028346693

decoder.bias f4 [4800]
000000 58 a9 e0 a4 a0 5a dd a4 5c 88 d3 a4 ae a1 c3 a4
       -9.7431394e-17 -9.5997e-17 -9.1737665e-17 -8.4841665e-17
000010 11 a3 ae a4 81 fe 95 a4 53 8d 76 a4 7f a7 3f a4
       -7.5736716e-17 -6.5049596e-17 -5.3462453e-17 -4.1558398e-17
000020 64 3c 09 a4 88 ef a8 a3 57 9f 07 a3 68 51 64 22
       -2.9758292e-17 -1.8316042e-17 -7.352106e-18 3.0942858e-18
000030 82 07 70 23 0d 5f ce 23 e2 78 0f 24 43 44 34 24
       1.3012016e-17 2.237482e-17 3.1110574e-17 3.9089098e-17
000040 6e c3 54 24 d9 19 70 24 84 cf 82 24 0a 9a 8a 24
       4.6135707e-17 5.2063598e-17 5.673006e-17 6.010891e-17
000050 39 bd 8f 24 cf f1 92 24 27 14 95 24 b5 95 96 24
       6.233692e-17 6.3727047e-17 6.465259e-17 6.5305744e-17
000060 83 30 97 24 03 d8 2f 3b 73 db 32 3b 11 1b 40 3b
       6.556799e-17 0.0026831634 0.0027291446 0.0029313008
000070 1b 3f 5c 3b 56 c7 81 3b 7d 3c 96 3b 06 cc a6 3b
       0.003360695 0.0039605303 0.0045848475 0.0050902395
000080 80 75 b0 3b 3b 30 b2 3b 79 75 ac 3b b6 88 a0 3b
       0.005385101 0.0054378784 0.0052630273 0.0048991097
000090 e4 c6 8f 3b a0 32 76 3b 86 4e 45 3b 6d 78 0b 3b
       0.0043877233 0.0037566796 0.0030106618 0.0021281496
0000a0 98 c8 8b 3a 8f 5b 6d b9 e7 e1 ea ba 96 52 6e bb
       0.001066464 -0.0002263619 -0.0017920107 -0.0036365143
0000b0 49 de ba bb b8 9a 00 bc 9e 69 21 bc 79 92 3b bc
       -0.005702768 -0.007849388 -0.009851841 -0.011448496
0000c0 a2 d5 4b bc 1d 36 51 bc 47 22 d2 3b d1 7d d3 3b
       -0.012441071 -0.012769249 0.0064127776 0.0064542075
0000d0 07 b7 db 3b b0 b3 ef 3b 39 4e 06 3c 14 08 15 3c
       0.006705168 0.0073151216 0.008197361 0.009096164
0000e0 10 e6 1f 3c 00 5e 24 3c 2c b9 21 3c e7 a2 18 3c
       0.009759441 0.010032177 0.009870809 0.009316183
0000f0 cb 77 0a 3c fb 3e f1 3b f2 12 c8 3b 0b c3 99 3b
       0.008451412 0.007362244 0.006105774 0.0046924404
000100 ac ef 49 3b 4b cc 9b 3a 69 c7 8e ba e4 b0 7b bb
       0.0030813022 0.0011886446 -0.0010893169 -0.0038404996
000110 2b 4c e8 bb 5f 09 30 bc e6 87 6e bc 43 81 94 bc
       -0.007089158 -0.010744422 -0.014558768 -0.018128043
000120 5f d6 ab bc 7f 52 ba bc 0b 1a bf bc f6 8e 3e 3c
       -0.020976244 -0.022744415 -0.023327848 0.011630764
000130 08 e2 3d 3c c4 e2 3e 3c c1 7d 45 3c dc 84 50 3c
       0.011589535 0.011650745 0.012053908 0.012726989
000140 7a fa 5a 3c 75 e2 5f 3c 40 5c 5c 3c 29 f3 4f 3c
       0.013365382 0.013664831 0.0134497285 0.012692251
000150 7a fd 3b 3c 8b a9 22 3c 7d 19 06 3c 5f 6b cf 3b
       0.011474008 0.0099281175 0.008184788 0.0063299383
000160 9c 8e 8f 3b 20 7f 15 3b c7 5f bb b8 a4 ee 3c bb
       0.004381014 0.0022811368 -8.934695e-05 -0.0028828764
000170 2f 5b cc bb 24 3f 27 bc e8 ed 70 bc b3 28 9f bc
       -0.006236456 -0.010207925 -0.014705159 -0.019428587
000180 2d 84 c3 bc 8b 89 e0 bc 76 7d f2 bc df 63 f8 bc
       -0.023866737 -0.027409336 -0.02960084 -0.03032106
000190 39 a2 93 3c dd ff 91 3c a3 09 8f 3c b5 87 8d 3c
       0.01802169 0.0178222 0.01746065 0.017276624
0001a0 bc 6a 8d 3c a3 5b 8c 3c 38 ec 87 3c 01 b1 7d 3c
       0.017262809 0.01713354 0.01659213 0.015484096
0001b0 7e 69 62 3c 6a 1e 40 3c 5d c3 19 3c 00 37 e4 3b
       0.013819097 0.011726001 0.009384957 0.0069645643
0001c0 3f e7 95 3b dd c5 12 3b 80 d8 e3 b8 ce 7a 2b bb
       0.004574686 0.0022395768 -0.0001086453 -0.0026165727
0001d0 73 6d b3 bb 1b 49 11 bc ed 32 53 bc 60 2e 8f bc
       -0.005475694 -0.008867527 -0.01289056 -0.017478168
0001e0 cd ec b6 bc 62 64 dc bc 72 3a fa bc 4e 45 06 bd
       -0.022329712 -0.026903335 -0.030545447 -0.032780938
0001f0 c7 41 09 bd de c1 ca 3c 59 6e c7 3c 5f bf bf 3c
       -0.033509996 0.024750646 0.02434461 0.023406683
000200 6c 54 b7 3c 81 fb ae 3c cd fc a4 3c e5 5e 97 3c
       0.022379123 0.02136016 0.020140076 0.018477866
000210 c3 43 85 3c ad 42 5e 3c b3 bc 2c 3c ff fa f2 3b
       0.016267663 0.013565701 0.010543036 0.007415175
000220 23 67 8f 3b 71 65 cb 3a 70 e8 86 ba 3b 71 61 bb
       0.0043763085 0.0015517903 -0.001029266 -0.0034399766
000230 52 6e bf bb a8 75 0a bc 88 15 3c bc e4 cc 76 bc
       -0.0058420086 -0.008450903 -0.011479743 -0.015063498
000240 6b 0f 9d bc fd d7 c0 bc 95 91 e2 bc 8b 31 fd bc
       -0.01917239 -0.023540491 -0.02765731 -0.030907413
000250 eb a2 06 bd ec 37 09 bd 8c 59 fc 3c 77 45 f7 3c
       -0.032870214 -0.033500597 0.030804418 0.03018449
000260 f7 98 ea 3c bf b5 da 3c be 6c c9 3c ff ea b5 3c
       0.028637392 0.026697991 0.024587985 0.022206781
000270 f8 e0 9e 3c e3 ed 83 3c c2 c1 4b 3c 40 be 0c 3c
       0.019394383 0.016104644 0.012436332 0.008590281
000280 54 4f 9d 3b e5 e2 a6 3a 07 e8 f3 ba 30 bd 95 bb
       0.0048007164 0.0012732415 -0.0018608578 -0.004569672
000290 88 f5 e2 bb cf 03 15 bc a2 22 39 bc 34 92 61 bc
       -0.0069262423 -0.009095146 -0.011299761 -0.013767768
0002a0 dd 75 88 bc 8e a3 a3 bc 7d 8c c0 bc 67 95 db bc
       -0.016657764 -0.01997545 -0.02350449 -0.026804639
0002b0 36 7b f0 bc b8 ae fc bc 47 3d 00 bd 79 7b 10 3d
       -0.029355627 -0.030845031 -0.03130844 0.035274003
0002c0 12 37 0d 3d 3e c3 04 3d 63 32 f3 3c ae 30 da 3c
       0.034476347 0.03241276 0.029687112 0.02663454
0002d0 85 98 be 3c 58 c8 9f 3c 19 9c 7b 3c bb 74 33 3c
       0.023266086 0.019504711 0.015357041 0.010953124
0002e0 0d 45 d5 3b 17 3b 14 3b f9 5a cf ba 66 52 a0 bb
       0.0065084756 0.0022618228 -0.0015819959 -0.004892635
0002f0 0e 3e fa bb d5 eb 21 bc 91 25 41 bc c1 5a 5e bc
       -0.007636792 -0.009882887 -0.011788742 -0.013571442
000300 62 41 7d bc 96 4b 90 bc a8 6d a4 bc 91 a8 b9 bc
       -0.015457483 -0.017614167 -0.02007182 -0.022663387
000310 d9 0f cd bc b4 60 db bc 59 22 e3 bc 94 5f e5 bc
       -0.02503197 -0.02677951 -0.02772634 -0.027999677
000320 fb cd 19 3d 23 17 16 3d b0 4d 0c 3d d3 1a fe 3c
       0.037549954 0.03664316 0.034253776 0.03101865
000330 9e 12 e0 3c ea 50 bf 3c 6a b6 9b 3c 07 38 6b 3c
       0.027352627 0.023354013 0.01900788 0.01435662
000340 cb 64 1c 3c 2b 01 9d 3b d8 b1 ab 39 0e 1b 6f bb
       0.009545515 0.004791399 0.00032748166 -0.0036484632
000350 54 b6 e5 bb e2 4c 1f bc 98 19 42 bc e5 9e 5d bc
       -0.0070102606 -0.00972292 -0.011846922 -0.013526653
000360 a5 29 75 bc 53 1b 86 bc aa b7 92 bc 36 c1 a0 bc
       -0.014963542 -0.016370451 -0.017909843 -0.01962338
000370 ca 28 af bc ca a4 bb bc 7c ed c3 bc 07 9c c7 bc
       -0.021381754 -0.022905726 -0.023916952 -0.024366392
000380 b7 6c c8 bc 00 5a 19 3d 89 8a 15 3d ca 66 0b 3d
       -0.024465902 0.037439346 0.03650907 0.034033574
000390 10 06 fb 3c 9b 66 db 3c 9e 1c b9 3c 20 4a 94 3c
       0.03064254 0.026782325 0.022596654 0.018101752
0003a0 96 be 5a 3c a4 15 0b 3c 85 0b 74 3b 56 47 3d ba
       0.013351103 0.008489046 0.0037238311 -0.0007220408
0003b0 f1 ae 98 bb 41 85 02 bc 14 be 2d bc 1c d3 4e bc
       -0.0046595265 -0.0079663405 -0.0106044 -0.012623575
0003c0 c1 d9 67 bc 20 c6 7b bc 22 de 86 bc 71 12 90 bc
       -0.014151038 -0.015367061 -0.016463343 -0.017586919
0003d0 34 d4 99 bc 14 42 a3 bc 6c 90 aa bc 56 47 ae bc
       -0.018777944 -0.01992897 -0.020820819 -0.02127425
0003e0 cc de ae bc d4 9b ae bc 2d 39 10 3d 3a a7 0c 3d
       -0.021346472 -0.021314539 0.035210777 0.034339167
0003f0 a8 1d 03 3d f9 fb eb 3c 17 12 ce 3c b2 af ad 3c
       0.032010704 0.028806673 0.02515511 0.021201942
